yan-cotta/deployment_artifacts/balanced_ffnn_model.pth (torch, 54267 bytes, 13 tensors)

network.0.weight f4 [128, 22]
00000000: e774 ad3b a52b 8abe 7e2a 663d ad51 4bbd
00000010: 19ea a0bd c753 093e fb60 f5bd a720 acbd
00000020: f0dd a8bd 299f 2bbe 7708 edbc af96 1c3d
00000030: c11c 8c3d 3884 9c3c fd15 3fbe 47be 9ebe
00000040: 7c97 e03e 2795 b8bd 48ac 50bc d0f9 57be
00000050: 37a3 d7be 1e44 8fbd 561a 523f e7fc 1b3f
00000060: 93ee d83f 005c 3c3c f6d9 653c ef9a 7c3e
00000070: 7f27 0e3f 99eb 273e 87dd 53be b5c7 50bb
00000080: 6f90 9ebe cf91 ab3e be67 473e 11a5 453c
00000090: a1ed 51bb 433c a63e a70a 9f3c 6204 053c
000000a0: aa71 663d 7991 293e 873b c43e b425 103f
000000b0: 0e03 53be 9c65 973d a507 0e3b ef04 efbd
000000c0: 56c8 d63d 488c 2fbe 6e69 b0bd 6e04 87bd
000000d0: 79e7 093e ddb5 173d 4c41 5abe 0971 4bbe
000000e0: ec64 0abe 8cc1 183e 0e6b 64be 5451 1dbe
000000f0: ef18 353e 47da 7dbe ec3d c33b be44 28bd
00000100: 768d f13d 0411 5c3d 33a6 7f3c 1e4c dbbd
00000110: 6757 273d d498 74be 60a5 3f3e ba5c 323e
00000120: 383a 5f3e 0343 27bd 2f81 813d c3cd 04be
00000130: db82 c63d 9ee5 74be 8701 4e3e b89c 223e
00000140: 96e2 033e 289e 063e 0a19 42be c9aa 263e
00000150: c8e0 13be c439 8c3d 08e9 2d3e 5c67 35be
00000160: 1829 2f3f ab9e 2d3f 5ccd b93f be79 23bb
00000170: 912d 76bd 4f7c 773f 61f1 393f d3e6 e63d
00000180: 8b0e 54bd 9836 31be 89de 5fbf afd5 c73e
00000190: fdc6 a23e 374f 833d 73ee d4bc 2fde 233e
000001a0: 68f8 883d 4c21 933d 0247 8c3c de33 763e
000001b0: 6a8b a23e 0dc4 173f 93e0 623d c7cf 463e
000001c0: f789 20be fc19 11bd 0190 e1bd 227e 22bd
000001d0: b227 263e 8948 55be 5208 de3d acb4 03be
000001e0: 9403 df3d ccca f7bc 877b ce3d 3b26 e5bd
000001f0: 59d4 873c b10e 77be bca7 fd3d d494 09be
00000200: 7253 a9bd de82 acbd 7ffd cf3c 5daa 013e
00000210: 819c 3b3e 7705 49be 14a7 15be 917f 14be
00000220: 5de3 9b3d 83e0 f03d 4719 1f3e 90e8 1f3d
00000230: cd0a 28be 8712 49be 0a37 123d ab60 40be
00000240: 3f56 39be 9709 ff3d 9d6b e5bd d465 8a3d
00000250: 7756 8cbd 69ac bbbd a643 873d 2933 02be
00000260: 5173 b1bb 6731 ffbd 792a da3d d3ea ba3d
00000270: 9b34 493e e215 fabd 25fe 08be 5ccf 17be
00000280: 5f2b f1bd 732e 463e c8ba 453d 40ac 32be
00000290: 0a7c 99bb 2970 fa3d 855e 82bd 6717 2d3e
000002a0: c406 073c 828d bb3d 5ef4 bebb 47bf 4dbe
000002b0: 8536 49bd 653f ecbd 92eb 5f3d e4fd aabd
000002c0: e464 893f b36c 873f 2464 f63e d279 03bd
000002d0: 4fca 0dbe 0cf9 0b3e 2030 ab3e e93c 0fbe
000002e0: ecae 18be 3bb8 b7be fe53 b4bf 3d41 333e
000002f0: c1b8 b5bd 802d 5abd a223 c8bd 1288 1a3e
00000300: e7ce 67be 92e4 5f3c 5f6e 36be a0df c63e
00000310: 80d2 18ba d49d d83e 4003 db3e e22e 393e
00000320: 18d8 cb3f 9f41 013e bda7 b8bb 9de3 bc3e
00000330: 1082 113c 6f8e e7bd 7f9e 6c3c 598b 7c3c
00000340: cb92 90bf de0a a8bb 1e8e 95be eae3 5bbe
00000350: f464 e7bd 0ad9 343e f994 233f 6e64 d03d
00000360: d669 633d 99c1 8bbe 993e 473e e557 1c3f
00000370: 2f9c 493e 642d 11bd 61bc 00bd fb92 02be
00000380: 8c10 4ebe 3041 203e 1828 1cbd b0a2 c5bd
00000390: 62bc 3e3e 01a5 363e 8065 01be 0764 85bd
000003a0: c072 143e 4c0e 11be 72e5 f4bd 874d 8e3d
000003b0: 44cb 1c3e 82df 2d3e fae6 f6bd b263 aabc
000003c0: 6fc8 ae3c 505c dd3d a609 02bf d092 5bbb
000003d0: 0972 37bf c6e0 d83c a115 d1bd f551 9e3e
000003e0: c41c 34be 8d0a e6bc f4e5 da3c a079 dcbc
000003f0: ee1a 9b3f 3616 413e ec93 82be e760 543d
0.005293477 -0.26986423 0.056192867 -0.04963844 -0.078571506 0.13410865 -0.11981388 -0.084046654
-0.08245456 -0.16759934 -0.0289347 0.03822964 0.06841422 0.019106016 -0.18660732 -0.31004545
0.43865573 -0.090128236 -0.012736388 -0.2109139 -0.4211671 -0.06995414 0.82071435 0.60932773
1.6947807 0.011496544 0.014029017 0.24668477 0.55529016 0.16398467 -0.20689975 -0.0031857316
-0.3096957 0.3350968 0.19473168 0.012063281 -0.0032032507 0.3246785 0.01941426 0.008118721
0.056260742 0.165594 0.38326666 0.5630753 -0.20606634 0.07392427 0.0021672037 -0.11670863
0.1048743 -0.17143357 -0.08613859 -0.06592642 0.13467206 0.037038673 -0.21313971 -0.19867338
-0.13515061 0.14917582 -0.22306463 -0.15363055 0.17685293 -0.24790297 0.0059583094 -0.041081183
0.1179456 0.053727165 0.01560359 -0.107078776 0.040854838 -0.23886424 0.1871543 0.17418185
0.21799552 -0.04083539 0.06323468 -0.12969117 0.096929274 -0.23915717 0.2011777 0.15880096
0.12879404 0.1314627 -0.18954864 0.16276087 -0.14441216 0.068469554 0.16983426 -0.1771521
0.6842208 0.67820233 1.4515796 -0.002494439 -0.06010205 0.96674055 0.7263394 0.11274495
-0.05177168 -0.17305982 -0.87448937 0.39030215 0.3179244 0.064115934 -0.025992608 0.16002725
0.06688005 0.07184085 0.017123703 0.24043223 0.3174699 0.59283525 0.055389952 0.19415198
-0.1567763 -0.03542517 -0.11013795 -0.03967107 0.1622608 -0.20828451 0.10841431 -0.1286189
0.10889354 -0.030248068 0.10082155 -0.111889325 0.016580747 -0.24126698 0.123855084 -0.1343568
-0.08267869 -0.084233984 0.025389431 0.12662645 0.1832142 -0.19630991 -0.14614516 -0.14501788
0.076117255 0.11761572 0.15536986 0.03904015 -0.1641037 -0.19635974 0.03569702 -0.18786876
-0.18099307 0.12453001 -0.11202166 0.067577034 -0.06852429 -0.09163744 0.066047 -0.12714829
-0.005415358 -0.124605946 0.10652632 0.091268204 0.19648974 -0.12211205 -0.13378198 -0.14825195
-0.117758505 0.19353656 0.04827383 -0.1744852 -0.004683976 0.12228424 -0.063656844 0.16903459
0.008241359 0.0915785 -0.0058274707 -0.20092498 -0.04912426 -0.11535529 0.054668017 -0.08349207
1.0733914 1.0580047 0.48123276 -0.0320986 -0.13846706 0.13669223 0.33435154 -0.13988079
-0.14910477 -0.35882744 -1.4088132 0.17505355 -0.0887313 -0.05326605 -0.097724214 0.15090969
-0.2263752 0.013665335 -0.1781554 0.38842487 -0.0005829707 0.42307913 0.42775917 0.1808429
1.5925322 0.12622689 -0.0056352303 0.36892405 0.008881107 -0.11306464 0.014442085 0.015414082
-1.1294798 -0.0051282486 -0.2920999 -0.21473661 -0.11298552 0.17660919 0.6389919 0.101754054
0.055520855 -0.2729614 0.19457473 0.61071616 0.19688486 -0.03544368 -0.031429652 -0.12751381
-0.201235 0.15649867 -0.038124174 -0.09650171 0.1862655 0.17836381 -0.12636375 -0.06513219
0.14496899 -0.1416561 -0.11957826 0.06948381 0.15311915 0.16979793 -0.12055774 -0.020799492
0.021335809 0.10808623 -0.5079597 -0.0033504255 -0.7165838 0.026474368 -0.102092035 0.30921903
-0.17589098 -0.028081203 0.026720978 -0.026913464 1.2117593 0.18856129 -0.2550348 0.051850226

network.0.bias f4 [128]
00000000: 332c 35be 6a39 973e ceaa 123e 7dd4 c63d
00000010: b200 3ebe 6a83 babd 44ac 8a3c a16a 4a3e
00000020: 01f8 983e 62a0 59bd 3f87 bcbd f640 29bf
00000030: 70ba 0fbd ed59 f0be b585 32be 3e1b 91be
00000040: 78d3 ec3e 0e00 133e 7c24 acbd 2806 5fbe
00000050: 847a 43bd b97f cc3d 2414 a0bc 6f9e d03d
00000060: debe 093e 6dbc 82be 1e5b b0bc 7928 203f
00000070: 73d2 183c 68aa 133c 0381 39be 60c9 883d
00000080: 277b 883e b16a 013e 7a30 aebe 89e0 a6bd
00000090: d45b 1a3e 7549 b93d dd19 0c3e a4d4 48be
000000a0: 7ee9 18bc 3097 bbbd 676b 0a3e bb18 85bc
000000b0: aa30 5abe 7792 63bb d39c 2c3e e298 163d
000000c0: 8948 393d 9563 46be 0b47 4e3e ee61 36be
000000d0: b8d5 293e 4451 15be 2c6f 38bf 53ae c63c
000000e0: 944a 95be 9f93 b23d 7dc1 d13d 044e 0b3d
000000f0: 851b 53be a769 21be ec46 05be cb01 3bbe
00000100: 0d3f 683e 9a15 063e 8ee3 67bd c877 2e3e
00000110: 3ca2 39be ebc4 0f3d 69a8 13bb 85ca 0bbe
00000120: dded 813e 6706 59be a6c0 1ebe c29f 233d
00000130: 92ea 05bc e019 5fbe c103 c13d a61f 25bf
00000140: ed93 36be 0326 223e 6186 dbbd ab98 70be
00000150: 6194 7b3c 69f5 123e 48e0 b33d 417c 473e
00000160: 1c37 4cbe fffe fc3e 9a21 473d 546c a9bd
00000170: 14f5 8abe 03d8 1d3e ef5c d9bd e4ca ebbd
00000180: 35df 0a3e fa49 243e 61f9 90bc 684f 203e
00000190: c821 b73e e0b9 af3c 01db 03be e909 e43d
000001a0: f558 713d 22ee 2dbc 6eee 4a3e 4654 853e
000001b0: dc0b 4cbe 78a5 e8bd 3cca 5bbe ffe3 3d3d
000001c0: ed5c 013c 04c3 70be d45f f9be a6cf 0d3e
000001d0: 1e0f 6ebe 8ad2 073e 3957 46be 9ff6 6e3b
000001e0: aee8 453e 128d 3dbe 042b d6bc 5d8b 67be
000001f0: d4da 333c 29a0 4f3e c911 313e 5de6 593d
-0.17692642 0.2953599 0.1432297 0.09708498 -0.18554953 -0.091070965 0.016927846 0.19767238
0.29876712 -0.05313147 -0.09205484 -0.6611475 -0.03508991 -0.46943608 -0.17433818 -0.28341097
0.46255088 0.1435549 -0.08405396 -0.21779692 -0.047724262 0.09985299 -0.019540854 0.10186469
0.13451716 -0.25534382 -0.021527823 0.62561756 0.009327519 0.009012796 -0.1811562 0.06679034
0.26656458 0.12638356 -0.3402136 -0.081482954 0.15074092 0.09047214 0.13681741 -0.19612366
-0.009333013 -0.09159696 0.13517533 -0.016247144 -0.21307626 -0.003472475 0.16856699 0.036766894
0.04523519 -0.19373925 0.20144288 -0.17810795 0.16585433 -0.14581782 -0.72044635 0.024253046
-0.2915846 0.08719563 0.10241983 0.03400995 -0.20615967 -0.1576296 -0.13015336 -0.18262403
0.22680302 0.13094178 -0.056613497 0.1703788 -0.18128294 0.035099905 -0.00225308 -0.13651474
0.25376788 -0.21193849 -0.15503177 0.03994728 -0.008173602 -0.21787214 0.09424544 -0.64501417
-0.17829867 0.15834813 -0.1071899 -0.23495738 0.0153552005 0.14351429 0.08783013 0.19480993
-0.19942898 0.49413297 0.04861603 -0.08272615 -0.27140105 0.15414433 -0.10613429 -0.11513308
0.13561709 0.16043845 -0.017697038 0.15655291 0.3576796 0.021450937 -0.12876512 0.11134703
0.058922727 -0.010615857 0.19817516 0.26040858 -0.19926399 -0.11359686 -0.21463865 0.046360012
0.00789569 -0.23511893 -0.48705924 0.13848743 -0.23247954 0.13263908 -0.1936921 0.0036462916
0.19327042 -0.18510845 -0.026143558 -0.22611757 0.010977466 0.2027594 0.17291941 0.053198207

network.2.weight f4 [128]
00000000: e48c 683f a3ec a23f 0b7d 693f 98f7 783f
00000010: e8d5 853f 097e 803f 0000 803f 0000 803f
00000020: 28c1 573f 8d13 8e3f 0000 803f 8fca a63f
00000030: 728b 963f ba0a 813f 1c76 803f 1de8 8a3f
00000040: 64f3 6d3f c2c1 823f 01eb 9a3f 9d03 823f
00000050: 70ff 903f 2556 8f3f 6e47 943f ebca 8f3f
00000060: 0000 803f 5e57 8d3f 0000 803f 82d6 533f
00000070: eaa1 913f 0000 803f fc50 9c3f 686d 753f
00000080: 57ca 5f3f 4a04 7a3f d8a6 883f 3174 793f
00000090: 0000 803f 476d 723f 0000 803f 1a72 593f
000000a0: 383e 643f 37ea 733f 37f0 933f 1547 843f
000000b0: 0000 803f d94a 6f3f 30f9 693f d001 5a3f
000000c0: 3a8e 853f 0000 803f d55b 813f 9cd4 913f
000000d0: 88cf 893f 8c22 813f 7760 9c3f a846 893f
000000e0: 9d17 803f 3f55 743f d1d4 8d3f 2947 803f
000000f0: 4a8e 803f ee59 803f 4ad2 9c3f 37c8 8d3f
00000100: 06db 8c3f 0000 803f 0000 803f 1254 7f3f
00000110: 0000 803f c7f3 953f b01e a13f bd4c 613f
00000120: 8bb6 883f 29e2 8d3f 4d31 7f3f 0000 803f
00000130: 0000 803f be68 503f c0b8 8b3f 27de 993f
00000140: 3d00 823f ce95 783f d65e 7d3f dab2 7e3f
00000150: b8f9 773f dd12 883f 8952 863f 0000 803f
00000160: 0000 803f a400 8c3f 42a8 9a3f 0000 803f
00000170: c9d6 743f 4804 853f 0000 803f 049c 813f
00000180: 257c 973f b0c7 803f 4a81 6f3f 0000 803f
00000190: e1b7 993f bac3 933f 0000 803f 8db3 6d3f
000001a0: 0000 803f 01b7 793f 03c9 a33f a1d7 983f
000001b0: e2c0 7d3f 1ec8 863f 5197 803f 236f 8a3f
000001c0: 5de9 7f3f f174 703f 2e88 793f fee5 783f
000001d0: 4563 833f 0000 803f 587d 8d3f 169c 8d3f
000001e0: a209 7a3f 0000 803f 0000 803f 141a 6f3f
000001f0: 0000 803f 45df 943f c871 733f e60b 8d3f
0.9083998 1.2728466 0.91206425 0.972528 1.0455904 1.0038463 1.0 1.0
0.8427911 1.1099716 1.0 1.3030566 1.1761305 1.0081398 1.0036044 1.0852085
0.9294951 1.021538 1.2102968 1.0157353 1.1327953 1.1198164 1.1584299 1.1233801
1.0 1.1042287 1.0 0.8274919 1.1377537 1.0 1.2212214 0.95870066
0.8741812 0.97662795 1.0675917 0.9744292 1.0 0.94697994 1.0 0.8493973
0.8915744 0.9527926 1.1557683 1.0334193 1.0 0.93473583 0.91395855 0.85159016
1.0434029 1.0 1.010615 1.1393008 1.0766459 1.0088668 1.2216939 1.0724688
1.0007206 0.95442575 1.1080571 1.0021716 1.0043423 1.0027444 1.2251675 1.1076726
1.1004341 1.0 1.0 0.99737656 1.0 1.171502 1.258749 0.8800772
1.0680708 1.1084644 0.996846 1.0 1.0 0.81409824 1.0915756 1.202092
1.0156323 0.97103584 0.98972833 0.99491656 0.96865416 1.0630757 1.0493938 1.0
1.0 1.0937696 1.2082598 1.0 0.95640236 1.0391932 1.0 1.0125737
1.1834761 1.006094 0.93556654 1.0 1.200924 1.1544106 1.0 0.928521
1.0 0.97544867 1.2795719 1.1940805 0.9912244 1.0529821 1.0046178 1.0815166
0.9996546 0.9392844 0.9747342 0.9722594 1.026467 1.0 1.1053877 1.1063259
0.9767095 1.0 1.0 0.9339917 1.0 1.1630636 0.9509549 1.1019256

network.2.bias f4 [128]
00000000: b9cc 9bbe b46c 0dbe ec9b 3ebe 2cff 92be
00000010: 93e5 51be 74ec 2bbe 1f4e 1e3e a79e 8ebe
00000020: bc0f 4ebf fd98 b0bd 8ee1 81be 6e56 bebc
00000030: 3c5c bf3e bfab b3bd c119 223e 32eb 57be
00000040: 09fc 1bbe 9dd7 3abe 041e 94bd 98f0 50be
00000050: 2a29 a43e 4829 9f3e a5a0 63be 31d2 5d3e
00000060: 0832 72be 21dc d4bd fb00 8e3e bb3d 2bbf
00000070: 41ba 263e 7b8d 8fbe 513f 5a3d 5a7d 02be
00000080: 3f1f f63e 8436 0dbe b8e2 59be 8864 723e
00000090: 57fd c5be 1463 a2be 962e b93e 0913 273e
000000a0: 542b 91be a07a b73e d7db 7d3d 3c05 193e
000000b0: 0554 263e 1ddc a4be eead 28bf d5cb 0fbf
000000c0: e3b3 e9be 27ef 19be 40a5 79bd fa0c 473d
000000d0: 75d5 1f3e 6b4b 0ebe 6cab 95be edc2 4abd
000000e0: bcb2 86be 5e27 ad3d 93f9 afbd a572 04be
000000f0: 3dfe ebba 9214 74be b48c 0e3d a516 57be
00000100: 665b 2ebc d187 44be 42cc c53e 870b f93d
00000110: 9f75 5dbe c353 0bbe 3c9b aa3d 9e0b 1fbf
00000120: 4aae 83bc 901d 7cbe adb4 b83e 2a5c 9bbe
00000130: 20d7 18be 15af 34bf a4f8 4f3e effe f43d
00000140: 8c57 0d3e bc37 8dbe a430 04be b4c1 d1be
00000150: 542f 20bf f707 22be b389 293e 7d0e acbe
00000160: bb34 4cbe 0b0d 633e 3901 0e3e 5efa 8dbe
00000170: b56a e1bd 0638 083e 6050 163e 8b69 e8bd
00000180: 7f63 e2bd 68e3 383e de07 b33e 6c33 e73e
00000190: 6510 453e 60c3 e6bd 8847 d33e d09d b8be
000001a0: f8f5 f93e 7fdd 8abe 0949 913e 2aa5 2d3e
000001b0: 437a 283e a9c6 72be 2aaf 76be d587 513e
000001c0: b1cb d93e 9e7d a1bd cc2b 8abe e821 70bd
000001d0: 2d4f 0e3d c59d 373e 19a5 0abd 3404 6a3e
000001e0: e331 87be d8ae 0fbd c9b6 4dbe 6e76 debe
000001f0: 0ff7 493e 9839 2cbe 6a68 783e 53ad a9bd
-0.30429628 -0.13810998 -0.18614167 -0.28710306 -0.20497732 -0.16789418 0.15459488 -0.27855417
-0.8049276 -0.0862293 -0.25367397 -0.023234572 0.37375057 -0.08772992 0.15830137 -0.21085814
-0.15232863 -0.18246312 -0.072322875 -0.20404279 0.32062656 0.31086183 -0.2222925 0.21662213
-0.23651898 -0.10393549 0.27735123 -0.6689107 0.16281988 -0.2803763 0.05328304 -0.1274313
0.48070714 -0.13790327 -0.21277893 0.23671162 -0.38669845 -0.31716216 0.36168355 0.16315855
-0.2835337 0.35835743 0.061977234 0.14943403 0.16242988 -0.32199183 -0.65890396 -0.561704
-0.45645055 -0.15032636 -0.06094861 0.04859636 0.15608771 -0.13895957 -0.29232347 -0.049502302
-0.26308239 0.08454774 -0.085925244 -0.12934358 -0.0018004846 -0.23835972 0.034802154 -0.21004732
-0.010641908 -0.19192435 0.386324 0.12160402 -0.216269 -0.13606171 0.0833039 -0.621271
-0.016074318 -0.24620652 0.36075345 -0.30343753 -0.14925814 -0.70579654 0.20309693 0.11962687
0.13802928 -0.27581584 -0.1290918 -0.40968096 -0.62572217 -0.15823351 0.16556434 -0.33604804
-0.1994199 0.22172944 0.13867654 -0.27730078 -0.11006681 0.13302621 0.14679098 -0.11348256
-0.110541336 0.18055499 0.3496694 0.4515642 0.19244535 -0.112677336 0.41265512 -0.360579
0.48820472 -0.27122113 0.28376034 0.16957536 0.16452889 -0.23708595 -0.24090257 0.20461972
0.42538217 -0.07885288 -0.2698654 -0.058626086 0.034743477 0.17931278 -0.033848856 0.22853166
-0.26405248 -0.035078853 -0.20089258 -0.4344973 0.19723152 -0.16818845 0.24258581 -0.08285012

network.2.running_mean f4 [128]
00000000: 0400 0000 841b f740 0400 0000 0400 0000
00000010: c901 ca40 0400 0000 0000 0000 0000 0000
00000020: 76b3 883f 0685 0141 0000 0000 f3b4 373f
00000030: fea1 cd40 0400 0000 0400 0000 0400 0000
00000040: a159 9840 0400 0000 1d88 0341 0400 0000
00000050: ccfc 023f 6f6f d33f f44c 0e41 0424 0300
00000060: 0000 0000 0400 0000 0000 0000 867c 8c40
00000070: 4b64 ed40 0000 0000 023d a840 0400 0000
00000080: ced7 b640 bb34 ca40 0400 0000 0400 0000
00000090: 0000 0000 0400 0000 0000 0000 0400 0000
000000a0: 0400 0000 0400 0000 16d5 8b40 a5fa 0241
000000b0: 0000 0000 0400 0000 0f05 5f40 c013 c340
000000c0: 779d c040 0000 0000 35b0 2641 5e83 e040
000000d0: 0400 0000 0400 0000 7dee 2540 0400 0000
000000e0: 0400 0000 cf69 8540 d640 1741 0400 0000
000000f0: 0400 0000 0400 0000 336b 9b40 0400 0000
00000100: 52e6 c640 0000 0000 0000 0000 0400 0000
00000110: 0000 0000 f250 0041 4374 7e40 65ae ad40
00000120: ed21 c340 0400 0000 0400 0000 0000 0000
00000130: 0000 0000 8868 f83f 4852 a840 8883 9340
00000140: 0400 0000 0400 0000 0400 0000 0400 0000
00000150: 84ee 2740 f6fe 3841 140e cb40 0000 0000
00000160: 0000 0000 0cdc b740 0400 0000 0000 0000
00000170: 0400 0000 8b95 f53d 0000 0000 2168 0341
00000180: 860a 7640 0400 0000 0400 0000 0000 0000
00000190: ffa7 163f b377 a740 0000 0000 689f ce40
000001a0: 0000 0000 0400 0000 6e27 8d40 277a 4440
000001b0: 0400 0000 b75d 1441 0400 0000 ba24 fe3d
000001c0: 0400 0000 0400 0000 0400 0000 0400 0000
000001d0: 0400 0000 0000 0000 0400 0000 a6d7 fb3d
000001e0: 0400 0000 0000 0000 0000 0000 79ef f940
000001f0: 0000 0000 68e9 d140 0400 0000 cb5d 3641
6e-45 7.722109 6e-45 6e-45 6.312718 6e-45 0.0 0.0
1.0679767 8.094976 0.0 0.7176048 6.4260244 6e-45 6e-45 6e-45
4.760941 6e-45 8.220731 6e-45 0.5116699 1.6518382 8.893787 2.88426e-40
0.0 6e-45 0.0 4.3902006 7.418493 0.0 5.2574472 6e-45
5.7138433 6.318937 6e-45 6e-45 0.0 6e-45 0.0 6e-45
6e-45 6e-45 4.3697615 8.1861925 0.0 6e-45 3.4846838 6.096161
6.019222 0.0 10.418019 7.016036 6e-45 6e-45 2.5926812 6e-45
6e-45 4.169166 9.453329 6e-45 6e-45 6e-45 4.856836 6e-45
6.2156153 0.0 0.0 6e-45 0.0 8.019762 3.975846 5.4275384
6.0978913 6e-45 6e-45 0.0 0.0 1.94069 5.260044 4.609806
6e-45 6e-45 6e-45 6e-45 2.6239328 11.562246 6.3454685 0.0
0.0 5.745611 6e-45 0.0 6e-45 0.11991414 0.0 8.212922
3.8443923 6e-45 6e-45 0.0 0.5885009 5.2333617 0.0 6.456959
0.0 6e-45 4.411063 3.0699556 6e-45 9.27288 6e-45 0.12409349
6e-45 6e-45 6e-45 6e-45 6e-45 0.0 6e-45 0.12296991
6e-45 0.0 0.0 7.8104825 0.0 6.559742 6e-45 11.397899

network.2.running_var f4 [128]
00000000: 0400 0000 1398 7740 0400 0000 0400 0000
00000010: 8ea7 6140 0400 0000 0400 0000 0400 0000
00000020: e0eb aa3f 02f7 0640 0400 0000 a413 473f
00000030: 45dd 1340 0400 0000 0400 0000 0400 0000
00000040: 0cb8 1b3f 0400 0000 7dc5 3940 0400 0000
00000050: 51c9 713f 5691 1c40 175d 1340 fe0e 0000
00000060: 0400 0000 0400 0000 0400 0000 96fb 3140
00000070: fcb1 8240 0400 0000 f622 2f40 0400 0000
00000080: 1d6f 8340 52c2 3c40 0400 0000 0400 0000
00000090: 0400 0000 0400 0000 0400 0000 0400 0000
000000a0: 0400 0000 0400 0000 be58 6140 dd6d 8040
000000b0: 0400 0000 0400 0000 c563 e03f 6673 2540
000000c0: d83c 9040 0400 0000 63f1 a440 e3ee 5940
000000d0: 0400 0000 0400 0000 a487 5040 0400 0000
000000e0: 0400 0000 94a6 6840 b034 7e40 0400 0000
000000f0: 0400 0000 0400 0000 8665 3840 0400 0000
00000100: ecec 1740 0400 0000 0400 0000 0400 0000
00000110: 0400 0000 05fd 8a40 0b64 8540 9e25 5140
00000120: c17d 4a40 0400 0000 0400 0000 0400 0000
00000130: 0400 0000 8397 0d40 ed20 e03f 3c96 4240
00000140: 0400 0000 0400 0000 0400 0000 0400 0000
00000150: ea56 0b40 8902 9b40 8848 6140 0400 0000
00000160: 0400 0000 8b47 4440 0400 0000 0400 0000
00000170: 0400 0000 77e0 213e 0400 0000 3330 5f40
00000180: 7c15 4940 0400 0000 0400 0000 0400 0000
00000190: 0b23 433f 1b85 4440 0400 0000 7e47 3f40
000001a0: 0400 0000 0400 0000 7578 3740 ee72 0840
000001b0: 0400 0000 2d5d 6a40 0400 0000 3c2c 123e
000001c0: 0400 0000 0400 0000 0400 0000 0400 0000
000001d0: 0400 0000 0400 0000 0400 0000 a591 213e
000001e0: 0400 0000 0400 0000 0400 0000 5d7f 6c40
000001f0: 0400 0000 a2d5 893f 0400 0000 e830 d940
6e-45 3.8686569 6e-45 6e-45 3.5258517 6e-45 6e-45 6e-45
1.3353233 2.1088262 6e-45 0.77764344 2.3103802 6e-45 6e-45 6e-45
0.6082771 6e-45 2.9026787 6e-45 0.9444781 2.4463706 2.3025568 5.378e-42
6e-45 6e-45 6e-45 2.7809806 4.0842266 6e-45 2.7365088 6e-45
4.1073136 2.9493604 6e-45 6e-45 6e-45 6e-45 6e-45 6e-45
6e-45 6e-45 3.5210414 4.013411 6e-45 6e-45 1.7530447 2.5851684
4.507427 6e-45 5.154466 3.4052055 6e-45 6e-45 3.2582788 6e-45
6e-45 3.6351671 3.9719658 6e-45 6e-45 6e-45 2.8811965 6e-45
2.3738356 6e-45 6e-45 6e-45 6e-45 4.343386 4.1684623 3.267921
3.1639254 6e-45 6e-45 6e-45 6e-45 2.2123725 1.7510048 3.0404196
6e-45 6e-45 6e-45 6e-45 2.1771798 4.8440595 3.520052 6e-45
6e-45 3.0668666 6e-45 6e-45 6e-45 0.15808283 6e-45 3.4873168
3.1419363 6e-45 6e-45 6e-45 0.76225346 3.070624 6e-45 2.9887385
6e-45 6e-45 2.866727 2.1320148 6e-45 3.661937 6e-45 0.14274687
6e-45 6e-45 6e-45 6e-45 6e-45 6e-45 6e-45 0.15778215
6e-45 6e-45 6e-45 3.6952736 6e-45 1.076832 6e-45 6.78722

network.4.weight f4 [64, 128]
00000000: b0e7 c6be 3115 053e 8895 2b3e 6864 9c3d
00000010: 3ff1 9d3e 71e1 8d3e 77fd a4bc 23b3 2d3d
00000020: 4715 213f 1f5c 00bd 59d3 1dbe b7d2 b3be
00000030: ea7e 14be 0f11 30bd 9bf0 68be 37f4 d63d
00000040: 6ae0 a9be 8d17 e5be a409 963d fa50 dc3c
00000050: 62a4 e3be 2642 3dbe c284 f63d 3f8d a0bd
00000060: f256 dd3d bc23 87bd 6cff e8bd 583f 1a3f
00000070: 2a1e 273e 833c c9be 5db2 1bbe aff6 80bc
00000080: 9d5d 243e 8dac cbbd 0f7d aabe 7c3b a53e
00000090: ec68 4ebd 3204 d5be 0b79 ce3d f335 fa3e
000000a0: 9c9d 3fbc 657e c5ba e352 b53d 7e83 cc3d
000000b0: bd7b ff3c d995 d1bb 5079 143f 7df8 163f
000000c0: 900a ed3e 6000 f43d 0f7e 493d 8e10 e23d
000000d0: 5cfb 9ebd 72c2 8ebd b556 b83e e409 0abe
000000e0: 4343 063e 56a0 99bd 21d1 0d3e 25c1 6ebe
000000f0: 0d53 493e 97a2 1cbe 22d7 e2bd eda7 fbbd
00000100: c1a3 9ebd 3c47 ef3d e4b3 903d 35fb eebd
00000110: 1601 65bd 5c08 b9bd bd02 c63d e0a2 ab3e
00000120: 22a5 183d 438f 23bd a93d 823d 48b5 0dbd
00000130: 241b 85be 6c56 2b3f f1dc 643e ea3b 833e
00000140: 3b9e 133d eda5 96be 6be0 c1be 049c 90be
00000150: 2602 023f f1c1 2fbe 8732 593e 6592 23be
00000160: 7c0b 7bbe d0af 92bd 2bf5 af3d 49f6 303d
00000170: e71d c5be 2ca8 91bd f77e 393e ba17 24be
00000180: 4429 3c3e 7604 90be 577e 703e dce3 7a3e
00000190: 2c04 9b3c 44ab c63e bf01 083d f341 1d3f
000001a0: 5446 f33c adc0 423c 7245 a7bc 220f 993e
000001b0: e9ba 63bd f203 643e d02b 23be 1f81 56bf
000001c0: 4fe8 713e b508 153d 646d 35be 3d5a 30bc
000001d0: 9889 d4bd 8ac7 fa3d d8dd 2d3c 8611 cbbe
000001e0: 82aa 8ebe e8f2 0fbe 58f2 87be ab0e 7c3e
000001f0: 56c0 953c 4ef3 61be c2b1 613e 32b2 653e
00000200: 5154 dd3e 804e b7be 40f5 af3d 7bb0 22bd
00000210: b363 4b3b 3941 f3bc 101c d43e 1437 4abe
00000220: d8f6 a2bd cc2c 32bf d5a2 5ebe 3b75 b8be
00000230: b1f0 97bc a7f3 aabe 050a 3d3e 0d5a 8bbe
00000240: e130 9dbe 01c9 9fbd 00dd 92bc cc45 213e
00000250: c9f9 f93e 1950 03be dc20 0abe 8fcf 743e
00000260: 2ead eabe d1f9 e43d ea50 46bc 2b59 dfbd
00000270: 3a38 f0be 6dd2 cfbe be99 adbe 5cbc 633d
00000280: f730 66bc 94ab 02bf bad1 96bd f640 a73e
00000290: 0471 023e 627a dcbe 457c 673e d2be f63d
000002a0: d545 0e3e 3cce a33d afc6 10bf d5ac c33d
000002b0: 28da 013e 452b a83d 02ce 9a3d 52bb dd3d
000002c0: 3eae 8a3c 8b04 5dbe 861e f7be 33bd 52be
000002d0: 9408 02be b769 8a3d c95c 033e e531 6e3c
000002e0: 810b 3a3c 3a97 5cbe e56e 2dbf d04d 5a3e
000002f0: 5825 0b3e 9ec0 9cbc 2915 33bf a3af b5be
00000300: c251 e5be 017a 92be 5b03 d23e e429 ccbc
00000310: 4ce1 babe 9b51 c0be de7b 28be 2e43 4cbd
00000320: b724 9f3d f76b 2ebe 85c1 68be ceaf a73d
00000330: 441e 09be 10c9 98bd 2eeb 0c3c 21eb a1be
00000340: d82a a3bd 5aaf c23c bca7 763e 0d58 53be
00000350: f879 2f3e 7d3f 36be 17c0 313d 7bb7 923d
00000360: ab62 03be e58b fabe a34a 00be 661d bebe
00000370: ae1f d1bc 01a5 ed3d 9028 363e 116e f4ba
00000380: 3903 c4bd 5ea7 613e 1284 01bc feb2 423d
00000390: 4b3b a63e a825 e8be 86e8 703e 1e6a 63be
000003a0: c61d fc3e 7827 98be 4d42 33bf 18c0 e93c
000003b0: 87e9 793d 6292 4dbf 86e5 fc3d bcc5 debd
000003c0: 6b2d 3ebe 0aee 71be c4d8 ccbd d237 b63e
000003d0: ee82 d73b 72e2 54bd b643 b63e fd67 923d
000003e0: 4866 14be 4058 633e 88a9 aebc 8c87 7abe
000003f0: e52d b1be 4494 83be 0b5f 1a3d 22b0 033e
-0.3884864 0.12996365 0.1675626 0.076363385 0.3084812 0.2771106 -0.020140393 0.042407166
0.6292309 -0.031337854 -0.15412654 -0.351217 -0.14501539 -0.04298502 -0.22748034 0.10495799
-0.33179027 -0.4474453 0.073260576 0.026894081 -0.44461352 -0.18482265 0.1203704 -0.078394406
0.10807599 -0.06598613 -0.11376843 0.60252905 0.163201 -0.3930398 -0.15204759 -0.015742628
0.16051336 -0.09945021 -0.33298537 0.32271945 -0.05039303 -0.41604763 0.10081681 0.48869285
-0.011695292 -0.0015067576 0.088537 0.09986018 0.031186933 -0.006396037 0.5799761 0.58972913
0.4629712 0.11914134 0.049192484 0.11038314 -0.07762787 -0.06970681 0.36003652 -0.13480335
0.13111596 -0.07501285 0.13849308 -0.23315866 0.19660588 -0.15296398 -0.110761896 -0.12287889
-0.07746077 0.11683509 0.070655614 -0.11669008 -0.05590924 -0.090347975 0.09668491 0.335227
0.037266858 -0.039931547 0.06359417 -0.03459671 -0.2599727 0.66928744 0.22349907 0.25631648
0.036039572 -0.29423466 -0.3786653 -0.2824403 0.5078453 -0.17163827 0.21210681 -0.15973814
-0.245161 -0.0716244 0.08591684 0.043203626 -0.38499376 -0.07112154 0.1811484 -0.16024676
0.18375117 -0.28128403 0.23485695 0.24500984 0.018922888 0.3880254 0.03320479 0.61428756
0.029696621 0.011886758 -0.020418856 0.29894358 -0.055598173 0.2226713 -0.15934682 -0.83790773
0.23623775 0.036385257 -0.1771751 -0.010763702 -0.103778064 0.1224509 0.010611974 -0.39661807
-0.27864462 -0.14057505 -0.2655208 0.2461497 0.01828019 -0.2206547 0.22040465 0.22431257
0.4322839 -0.35802078 0.085916996 -0.039719086 0.0031034767 -0.029694187 0.4142766 -0.19747573
-0.07957238 -0.69599605 -0.21741803 -0.3602694 -0.018547388 -0.33389017 0.18460853 -0.2721714
-0.30701354 -0.0780201 -0.017927647 0.15749282 0.48823383 -0.12823524 -0.13489097 0.23907302
-0.4583525 0.11180461 -0.012104252 -0.10905679 -0.46917897 -0.4059023 -0.33906358 0.055599555
-0.01404976 -0.5104306 -0.07364221 0.3266675 0.12738425 -0.4306212 0.22605999 0.12048115
0.13893826 0.079983205 -0.5655317 0.095544495 0.12680876 0.08211378 0.07558824 0.10826744
0.016928788 -0.21583764 -0.48265475 -0.20579986 -0.12698585 0.06758445 0.12828363 0.014538263
0.011355282 -0.21542063 -0.67747337 0.21318746 0.13588464 -0.019134816 -0.6995416 -0.35485563
-0.4478894 -0.28608707 0.41018185 -0.024922319 -0.36500013 -0.3756226 -0.16453502 -0.049868755
0.07770675 -0.17033373 -0.22730072 0.08187829 -0.13390452 -0.07460225 0.008600993 -0.31624702
-0.07967156 0.023765255 0.24087423 -0.20639057 0.17136371 -0.17797656 0.04339608 0.07163902
-0.12830608 -0.48934856 -0.12528472 -0.37131804 -0.025527801 0.116037376 0.17788911 -0.0018648525
-0.09570927 0.22036502 -0.007905023 0.04753398 0.32467112 -0.4534123 0.235262 -0.22208449
0.49241465 -0.29717612 -0.7002304 0.02853398 0.061013725 -0.8030149 0.123484656 -0.108775586
-0.18572013 -0.23625961 -0.10002282 0.35589463 0.0065768873 -0.051973768 0.35598534 0.071487404
-0.14492142 0.22201633 -0.021321073 -0.2446577 -0.34605327 -0.25699055 0.037688296 0.12860158

network.4.bias f4 [64]
00000000: 5aa3 003f fadf fa3e b18e 143f d36e 883e
00000010: 9801 8b3f 15ea 453f 8790 e23f ab55 be3e
00000020: b6cf e53f 1631 0f3f c80c f53e 44b2 fc3e
00000030: d381 ae3f 9aad 833f 53e6 323f dd4d 4c3f
00000040: 997f 053f 5c99 883e d00e ba3f 5535 8e3f
00000050: 3c2e 913e 6749 183f f361 6bbd 63b5 643f
00000060: 46a2 9f3e dd50 973e 09ca aa3f dc3d 503e
00000070: 7423 0c3e d132 863f a40b e33e 9d0d 0c3f
00000080: 6ced 953c b026 323f 3543 003f 000e 1e3f
00000090: b27d 5d3f b4ea 173f ef80 273f 7403 1d3f
000000a0: c9ee 613f b19e ba3e 1709 2e3f af1f d83d
000000b0: 0881 3d3e 923e d03e 65a8 733f 66e9 b93e
000000c0: 108f b73f 5dee 2d3f 1b61 643f 477d c63d
000000d0: 7aaf 6e3f 31fe 3f3e 58c2 083f 8674 8c3f
000000e0: 8509 ef3e 8ee8 4f3f 1731 e23e 8376 883e
000000f0: 0b3e c93f 9dd5 533f 627b a23f 1515 5d3f
0.50249255 0.48999006 0.5803023 0.26647052 1.0859861 0.77310306 1.7700356 0.37174734
1.7954013 0.55934274 0.47861314 0.49354756 1.3633369 1.0287354 0.69882697 0.7980631
0.52147824 0.26679504 1.453577 1.1110026 0.28355587 0.59487003 -0.05746646 0.89339274
0.31178492 0.2955388 1.3342906 0.20336097 0.136854 1.0484258 0.4434482 0.5470827
0.018301688 0.6959028 0.5010255 0.6174011 0.8651992 0.59342504 0.6543111 0.61333394
0.8825498 0.36449197 0.6798262 0.10552918 0.18506253 0.40672737 0.95178825 0.3631088
1.4340534 0.6794184 0.8921067 0.096918635 0.93236506 0.1874931 0.53421545 1.097306
0.4668695 0.81214225 0.44178078 0.26652917 1.5722059 0.82747823 1.2693903 0.86360294

network.6.weight f4 [64]
00000000: bf6d b63e 0c2d 183f a4b3 ab3e 351f 293f
00000010: c794 153f e323 a03e 990f d93e 0bd2 1b3f
00000020: 95f0 c13e 6a4f fa3e 36b2 bb3e 24f1 b93e
00000030: d1d2 d03e b123 b73e 06be 313f 83f2 1d3f
00000040: 4454 9c3e 78ec 1b3f 36e1 8a3e 0bfa 023f
00000050: 6864 903e f93f 093f 79d9 1c3f a0f1 0d3f
00000060: 1dd6 283f 4bc4 a63e f81e 033f f602 013f
00000070: d1ba 093f 266e 0b3f f8cb ac3e 12aa 113f
00000080: 587d 373f 6ac4 043f c704 c23e ff85 e83e
00000090: 7719 153f 45b5 143f eecc 963e ed30 133f
000000a0: 8ff7 143f 8076 0f3f fc2e 013f f420 3c3f
000000b0: c8fd 953e 08b3 133f 0027 013f 1645 ab3e
000000c0: 21f0 c73e 4781 8a3e d79a 0f3f 75dd 123f
000000d0: c9cd 193f a521 a63e 0b6a 1d3f 439f c23e
000000e0: a357 183f 2afa b23e 51b3 133f f5a0 8c3e
000000f0: 455c cd3e 554f 043f 0ef3 053f 7c63 293f
0.35630605 0.59443736 0.33535492 0.66063243 0.5843014 0.3127738 0.42394713 0.60867375
0.37878862 0.48888713 0.36659402 0.36316788 0.4078584 0.35769418 0.6943058 0.6169817
0.3053304 0.609077 0.27124947 0.51162785 0.28201604 0.5361324 0.61269337 0.55446815
0.6595171 0.32571635 0.5121913 0.50395143 0.53800684 0.5446495 0.33749366 0.5690013
0.71675634 0.51862204 0.3789427 0.4541473 0.5824198 0.58089095 0.29453224 0.5749653
0.58190244 0.5604019 0.5046232 0.7348778 0.29295182 0.57695055 0.50450134 0.33451146
0.3905039 0.27051756 0.5609564 0.57369167 0.6007963 0.32447544 0.61489934 0.38012132
0.59508723 0.34956485 0.5769549 0.2746655 0.4010946 0.5168355 0.52324 0.66167426

network.6.bias f4 [64]
00000000: 144f 79be 3de0 a23e da7b edbd a1dd 9a3e
00000010: 5629 943e 999d 1dbe dda9 60be ae6d 2d3e
00000020: b8ad 76be a943 943e 258d 01be 4ade 02be
00000030: 3e0b 68be 007a 4ebe 1fb0 7b3e fd7f 833e
00000040: f525 cabd f8c0 a43e cd4a 89be 95b3 b13e
00000050: bc39 2fbe 613e 893e 3ad5 5e3e 2d1e 9d3e
00000060: 3816 9e3e 3c9d 17be a326 993e 8bf6 983d
00000070: e0dd 683e fb35 9b3e 7a2e 3fbe 1cea c23e
00000080: 9497 b93e 0a2f 993e f37b fbbd 1f67 733e
00000090: aca8 773e ac80 b73e b391 58be 22a2 713e
000000a0: 1d0d 933e 32f1 9c3e 35ab a63e 818d 9e3e
000000b0: 3431 53be cf19 9a3e 109e 663e 8fbf 1ebe
000000c0: 6d22 35be 1e38 33be cb20 6d3e 83c6 a43e
000000d0: 8c8f bf3e f283 21be a213 893e e1c7 2dbe
000000e0: fe01 413e 8951 4fbe 68f0 b93e 7b63 1dbe
000000f0: 66ba 46be b1aa 9f3e 7453 af3e a79b a13e
-0.24346572 0.31811705 -0.115958884 0.30247214 0.28937787 -0.1539215 -0.21939798 0.1693637
-0.24089706 0.2895787 -0.12651499 -0.12780109 -0.22660539 -0.20163727 0.24578904 0.25683585
-0.09870521 0.32178473 -0.2681488 0.34707323 -0.17111868 0.26805404 0.21761027 0.30687085
0.30876327 -0.14806074 0.2991229 0.07468899 0.22740889 0.3031462 -0.18670073 0.38069236
0.36248457 0.299187 -0.12279501 0.23769806 0.24185437 0.35840356 -0.2114933 0.23597005
0.28720942 0.30652767 0.32552496 0.30967334 -0.20624238 0.30097815 0.22521234 -0.15502761
-0.17688914 -0.17501876 0.23157041 0.32182702 0.37414205 -0.1577299 0.2677279 -0.16970779
0.18848416 -0.20245947 0.36316228 -0.1536998 -0.19407043 0.31184915 0.34243357 0.31564066

network.6.running_mean f4 [64]
00000000: d68d 2940 e60d b140 dce3 5e40 2de4 5a40
00000010: a21b f040 c60d b240 a643 e640 0a4e 0c40
00000020: c615 f840 3ecb c840 1e33 2740 e4c2 5240
00000030: d24f e340 4311 b740 8fa2 de40 04ad f140
00000040: cb8a 3f40 06be 8540 ed09 cf40 5472 de40
00000050: 8fb2 5d40 5840 b340 d46c cc3f 6a8b fd40
00000060: 665a 5b40 59e4 1f40 81f2 0741 9592 1940
00000070: 8a20 5c40 ee63 e540 e5d3 6240 1383 a540
00000080: 125c 5c40 0451 be40 c2a7 8540 426d d140
00000090: eaad d240 1985 c240 c890 7440 b6d6 ac40
000000a0: 887c d840 da13 a240 acaa f740 99f7 5940
000000b0: b67f ce3f 6c88 a540 cbf4 cb40 cbec 2840
000000c0: e6a1 d840 9937 9640 f968 bd40 ca11 9240
000000d0: e8cc 0441 52d5 e53f bc88 c440 d4ed a440
000000e0: a734 7940 f1cf b540 e41a c540 a472 2d40
000000f0: 54bb e740 d7ae d640 5ccf d440 65e3 c840
2.649282 5.5329466 3.4826574 3.4201767 7.503373 5.5641813 7.195758 2.1922631
7.752658 6.27481 2.612495 3.2931452 7.1034937 5.720857 6.9573436 7.55237
2.9928463 4.179446 6.4699616 6.951456 3.4640234 5.6016045 1.5970712 7.9232683
3.4273925 2.4983122 8.496705 2.3995717 3.439486 7.1684484 3.544183 5.1722503
3.4431195 5.9473896 4.1767282 6.544587 6.5837297 6.0787473 3.8213367 5.40121
6.7652016 5.0649233 7.739584 3.4057372 1.6132724 5.172903 6.373632 2.6394527
6.769763 4.694287 5.919064 4.5646715 8.300026 1.7955725 6.141691 5.1540318
3.8938386 5.6816335 6.1595325 2.710122 7.241617 6.7088428 6.6503124 6.277758

network.6.running_var f4 [64]
00000000: cbbc 9c41 c11d 5942 a7aa af41 36b9 e941
00000010: 3371 0542 eb3e 3e42 0002 f341 e614 3941
00000020: 8214 fb41 130b 4342 1ae6 9441 ceb4 c441
00000030: e0c5 2442 f71f 1c42 167c 6942 ea21 4c42
00000040: 7e3b bb41 902f d541 ffe9 bf41 0ab0 9541
00000050: 83c5 fb41 e7d3 3342 4c7f 1d41 765a 6a42
00000060: e8a9 d941 32ff 9b41 8be1 0742 42c9 6c41
00000070: 635b d741 e116 2542 ba89 f041 3889 2b42
00000080: ada4 ea41 ac70 2b42 4677 1442 47ca 3442
00000090: 4502 2c42 7350 6a42 f428 eb41 410e 0042
000000a0: b020 eb41 57cb 3a42 6100 4f42 8246 f541
000000b0: 141b 2741 b3ab 2542 0c49 d141 78c9 b241
000000c0: 5a75 f341 f3a5 0d42 93b4 1442 a75f 1842
000000d0: 24a9 7842 0616 4841 9d1c 5342 8388 a941
000000e0: 3466 cd41 3dce 2142 1a7e 3942 bd39 ba41
000000f0: 9482 f241 b880 2d42 3c55 b341 090a 0442
19.592184 54.279057 21.958326 29.215435 33.360546 47.561443 30.375977 11.567602
31.385014 48.760815 18.612354 24.588284 41.193237 39.031216 58.371178 51.03312
23.404049 26.648224 23.989256 18.710957 31.471441 44.956936 9.843578 58.58834
27.207962 19.499607 33.970257 14.799135 26.919622 41.272343 30.06725 42.884003
29.330408 42.86003 37.116478 45.197536 43.002216 58.578564 29.394997 32.01392
29.39096 46.698574 51.75037 30.659428 10.444111 41.417675 26.160667 22.348373
30.4323 35.41206 37.176342 38.09341 62.165176 12.505377 52.777943 21.191656
25.674904 40.451405 46.373146 23.278193 30.313759 43.3757 22.416618 33.0098

network.8.weight f4 [1, 64]
00000000: c124 b03d bc83 56bd e63a 7b3d 8255 9fbd
00000010: 4705 82bd 14a5 173d fbfe 393d c3eb b3bd
00000020: 3dbf 5d3d 19c6 88bd 66e8 613d a35e 813d
00000030: 0d27 803d 7ac6 383d 87cc 97bd 5e25 e4bd
00000040: b265 913d 79ab 1bbd 5a28 0f3d e3ac b3bd
00000050: 0e21 3c3d 67b8 2cbd c881 91bd 59b6 82bd
00000060: cb76 85bd 9751 783d 9f4e 4ebd 347c 73bd
00000070: fbe1 59bd a441 1ebd 42df 8f3d 1013 65bd
00000080: 7ac1 abbd d43b 5bbc 4ccc bd3d 9438 97bd
00000090: 0ed8 88bd fbb3 febc 2d21 703d feb8 afbd
000000a0: de62 77bd ecad febb 8538 44bd 11f9 9ebd
000000b0: 1d8f 883d a11a 7abd 5f4e 85bd e77f 333d
000000c0: ded3 8d3d 5cab f33c 04f9 32bd a3c4 1cbd
000000d0: 6711 85bd 9a26 2a3d 1133 78bd 65f7 423d
000000e0: 9ee2 64bd db6f 543d 0787 30bd 843f a23d
000000f0: 020c 353d 0dcc 4bbd 7cd7 8bbd 537f adbd
0.0860076 -0.052371725 0.061335467 -0.07779981 -0.06348663 0.037022665 0.045409184 -0.08785202
0.054137457 -0.06678409 0.055153273 0.06316879 0.06257448 0.045111157 -0.07412057 -0.1113994
0.07099475 -0.038005326 0.03495059 -0.0877321 0.04592996 -0.042168047 -0.07104832 -0.06382436
-0.065167986 0.060624685 -0.050367948 -0.05944462 -0.053194027 -0.03863682 0.07025005 -0.055926383
-0.08386512 -0.013380963 0.09267482 -0.07383838 -0.06681834 -0.03109168 0.05862539 -0.08580206
-0.06039702 -0.007772198 -0.047905464 -0.077623494 0.06667922 -0.06106055 -0.06509089 0.04382315
0.06925176 0.029744796 -0.04369451 -0.038273465 -0.0649746 0.04154072 -0.060595576 0.047599215
-0.05588018 0.051864486 -0.043097522 0.07922271 0.044200905 -0.049755145 -0.0682821 -0.08471551
